<?xml version="1.0" ?>
<net name="landmarks-regression-retail-0009" version="10">
	<layers>
		<layer id="0" name="0" type="Parameter" version="opset1">
			<data element_type="f32" shape="1,3,48,48"/>
			<output>
				<port id="0" precision="FP32">
					<dim>1</dim>
					<dim>3</dim>
					<dim>48</dim>
					<dim>48</dim>
				</port>
			</output>
		</layer>
		<layer id="1" name="0/reverse_input_channels3311/Concat3330_const94_const" type="Const" version="opset1">
			<data element_type="f32" offset="0" shape="1,3,1,1" size="12"/>
			<output>
				<port id="1" precision="FP32">
					<dim>1</dim>
					<dim>3</dim>
					<dim>1</dim>
					<dim>1</dim>
				</port>
			</output>
		</layer>
		<layer id="2" name="Mul_/Fused_Mul_" type="Multiply" version="opset1">
			<input>
				<port id="0">
					<dim>1</dim>
					<dim>3</dim>
					<dim>48</dim>
					<dim>48</dim>
				</port>
				<port id="1">
					<dim>1</dim>
					<dim>3</dim>
					<dim>1</dim>
					<dim>1</dim>
				</port>
			</input>
			<output>
				<port id="2" precision="FP32">
					<dim>1</dim>
					<dim>3</dim>
					<dim>48</dim>
					<dim>48</dim>
				</port>
			</output>
		</layer>
		<layer id="3" name="0/reverse_input_channels3313/Concat3338_const96_const" type="Const" version="opset1">
			<data element_type="f32" offset="12" shape="1,3,1,1" size="12"/>
			<output>
				<port id="1" precision="FP32">
					<dim>1</dim>
					<dim>3</dim>
					<dim>1</dim>
					<dim>1</dim>
				</port>
			</output>
		</layer>
		<layer id="4" name="Add1_/Fused_Add_" type="Add" version="opset1">
			<input>
				<port id="0">
					<dim>1</dim>
					<dim>3</dim>
					<dim>48</dim>
					<dim>48</dim>
				</port>
				<port id="1">
					<dim>1</dim>
					<dim>3</dim>
					<dim>1</dim>
					<dim>1</dim>
				</port>
			</input>
			<output>
				<port id="2" precision="FP32">
					<dim>1</dim>
					<dim>3</dim>
					<dim>48</dim>
					<dim>48</dim>
				</port>
			</output>
		</layer>
		<layer id="5" name="309313_const" type="Const" version="opset1">
			<data element_type="f32" offset="24" shape="" size="4"/>
			<output>
				<port id="1" precision="FP32"/>
			</output>
		</layer>
		<layer id="6" name="310314_const" type="Const" version="opset1">
			<data element_type="f32" offset="28" shape="" size="4"/>
			<output>
				<port id="1" precision="FP32"/>
			</output>
		</layer>
		<layer id="7" name="311315_const" type="Const" version="opset1">
			<data element_type="f32" offset="24" shape="" size="4"/>
			<output>
				<port id="1" precision="FP32"/>
			</output>
		</layer>
		<layer id="8" name="312316_const" type="Const" version="opset1">
			<data element_type="f32" offset="28" shape="" size="4"/>
			<output>
				<port id="1" precision="FP32"/>
			</output>
		</layer>
		<layer id="9" name="68/WithoutBiases/fq_input_0" type="FakeQuantize" version="opset1">
			<data levels="256"/>
			<input>
				<port id="0">
					<dim>1</dim>
					<dim>3</dim>
					<dim>48</dim>
					<dim>48</dim>
				</port>
				<port id="1"/>
				<port id="2"/>
				<port id="3"/>
				<port id="4"/>
			</input>
			<output>
				<port id="5" precision="FP32">
					<dim>1</dim>
					<dim>3</dim>
					<dim>48</dim>
					<dim>48</dim>
				</port>
			</output>
		</layer>
		<layer id="10" name="0/reverse_input_channels/Concat3322_const98_const" type="Const" version="opset1">
			<data element_type="f32" offset="32" shape="16,3,3,3" size="1728"/>
			<output>
				<port id="1" precision="FP32">
					<dim>16</dim>
					<dim>3</dim>
					<dim>3</dim>
					<dim>3</dim>
				</port>
			</output>
		</layer>
		<layer id="11" name="319323_const" type="Const" version="opset1">
			<data element_type="f32" offset="1760" shape="16,1,1,1" size="64"/>
			<output>
				<port id="1" precision="FP32">
					<dim>16</dim>
					<dim>1</dim>
					<dim>1</dim>
					<dim>1</dim>
				</port>
			</output>
		</layer>
		<layer id="12" name="320324_const" type="Const" version="opset1">
			<data element_type="f32" offset="1824" shape="16,1,1,1" size="64"/>
			<output>
				<port id="1" precision="FP32">
					<dim>16</dim>
					<dim>1</dim>
					<dim>1</dim>
					<dim>1</dim>
				</port>
			</output>
		</layer>
		<layer id="13" name="321325_const" type="Const" version="opset1">
			<data element_type="f32" offset="1888" shape="16,1,1,1" size="64"/>
			<output>
				<port id="1" precision="FP32">
					<dim>16</dim>
					<dim>1</dim>
					<dim>1</dim>
					<dim>1</dim>
				</port>
			</output>
		</layer>
		<layer id="14" name="322326_const" type="Const" version="opset1">
			<data element_type="f32" offset="1952" shape="16,1,1,1" size="64"/>
			<output>
				<port id="1" precision="FP32">
					<dim>16</dim>
					<dim>1</dim>
					<dim>1</dim>
					<dim>1</dim>
				</port>
			</output>
		</layer>
		<layer id="15" name="68/WithoutBiases/fq_weights_1" type="FakeQuantize" version="opset1">
			<data levels="255"/>
			<input>
				<port id="0">
					<dim>16</dim>
					<dim>3</dim>
					<dim>3</dim>
					<dim>3</dim>
				</port>
				<port id="1">
					<dim>16</dim>
					<dim>1</dim>
					<dim>1</dim>
					<dim>1</dim>
				</port>
				<port id="2">
					<dim>16</dim>
					<dim>1</dim>
					<dim>1</dim>
					<dim>1</dim>
				</port>
				<port id="3">
					<dim>16</dim>
					<dim>1</dim>
					<dim>1</dim>
					<dim>1</dim>
				</port>
				<port id="4">
					<dim>16</dim>
					<dim>1</dim>
					<dim>1</dim>
					<dim>1</dim>
				</port>
			</input>
			<output>
				<port id="5" precision="FP32">
					<dim>16</dim>
					<dim>3</dim>
					<dim>3</dim>
					<dim>3</dim>
				</port>
			</output>
		</layer>
		<layer id="16" name="68/WithoutBiases" type="Convolution" version="opset1">
			<data dilations="1,1" output_padding="0,0" pads_begin="1,1" pads_end="1,1" strides="1,1"/>
			<input>
				<port id="0">
					<dim>1</dim>
					<dim>3</dim>
					<dim>48</dim>
					<dim>48</dim>
				</port>
				<port id="1">
					<dim>16</dim>
					<dim>3</dim>
					<dim>3</dim>
					<dim>3</dim>
				</port>
			</input>
			<output>
				<port id="2" precision="FP32">
					<dim>1</dim>
					<dim>16</dim>
					<dim>48</dim>
					<dim>48</dim>
				</port>
			</output>
		</layer>
		<layer id="17" name="68/Dims1147/copy_const100_const" type="Const" version="opset1">
			<data element_type="f32" offset="2016" shape="1,16,1,1" size="64"/>
			<output>
				<port id="1" precision="FP32">
					<dim>1</dim>
					<dim>16</dim>
					<dim>1</dim>
					<dim>1</dim>
				</port>
			</output>
		</layer>
		<layer id="18" name="68" type="Add" version="opset1">
			<input>
				<port id="0">
					<dim>1</dim>
					<dim>16</dim>
					<dim>48</dim>
					<dim>48</dim>
				</port>
				<port id="1">
					<dim>1</dim>
					<dim>16</dim>
					<dim>1</dim>
					<dim>1</dim>
				</port>
			</input>
			<output>
				<port id="2" precision="FP32">
					<dim>1</dim>
					<dim>16</dim>
					<dim>48</dim>
					<dim>48</dim>
				</port>
			</output>
		</layer>
		<layer id="19" name="69/Cast_13564_const102_const" type="Const" version="opset1">
			<data element_type="f32" offset="2080" shape="1" size="4"/>
			<output>
				<port id="1" precision="FP32">
					<dim>1</dim>
				</port>
			</output>
		</layer>
		<layer id="20" name="69" type="PReLU" version="opset1">
			<input>
				<port id="0">
					<dim>1</dim>
					<dim>16</dim>
					<dim>48</dim>
					<dim>48</dim>
				</port>
				<port id="1">
					<dim>1</dim>
				</port>
			</input>
			<output>
				<port id="2" precision="FP32">
					<dim>1</dim>
					<dim>16</dim>
					<dim>48</dim>
					<dim>48</dim>
				</port>
			</output>
		</layer>
		<layer id="21" name="70" type="MaxPool" version="opset1">
			<data kernel="2,2" pads_begin="0,0" pads_end="0,0" rounding_type="floor" strides="2,2"/>
			<input>
				<port id="0">
					<dim>1</dim>
					<dim>16</dim>
					<dim>48</dim>
					<dim>48</dim>
				</port>
			</input>
			<output>
				<port id="1" precision="FP32">
					<dim>1</dim>
					<dim>16</dim>
					<dim>24</dim>
					<dim>24</dim>
				</port>
			</output>
		</layer>
		<layer id="22" name="data_mul_18841888/copy_const105_const" type="Const" version="opset1">
			<data element_type="f32" offset="2084" shape="1,16,1,1" size="64"/>
			<output>
				<port id="1" precision="FP32">
					<dim>1</dim>
					<dim>16</dim>
					<dim>1</dim>
					<dim>1</dim>
				</port>
			</output>
		</layer>
		<layer id="23" name="Mul1_1674/Fused_Mul_" type="Multiply" version="opset1">
			<input>
				<port id="0">
					<dim>1</dim>
					<dim>16</dim>
					<dim>24</dim>
					<dim>24</dim>
				</port>
				<port id="1">
					<dim>1</dim>
					<dim>16</dim>
					<dim>1</dim>
					<dim>1</dim>
				</port>
			</input>
			<output>
				<port id="2" precision="FP32">
					<dim>1</dim>
					<dim>16</dim>
					<dim>24</dim>
					<dim>24</dim>
				</port>
			</output>
		</layer>
		<layer id="24" name="data_add_18851890/copy_const107_const" type="Const" version="opset1">
			<data element_type="f32" offset="2148" shape="1,16,1,1" size="64"/>
			<output>
				<port id="1" precision="FP32">
					<dim>1</dim>
					<dim>16</dim>
					<dim>1</dim>
					<dim>1</dim>
				</port>
			</output>
		</layer>
		<layer id="25" name="Add1_1675/Fused_Add_" type="Add" version="opset1">
			<input>
				<port id="0">
					<dim>1</dim>
					<dim>16</dim>
					<dim>24</dim>
					<dim>24</dim>
				</port>
				<port id="1">
					<dim>1</dim>
					<dim>16</dim>
					<dim>1</dim>
					<dim>1</dim>
				</port>
			</input>
			<output>
				<port id="2" precision="FP32">
					<dim>1</dim>
					<dim>16</dim>
					<dim>24</dim>
					<dim>24</dim>
				</port>
			</output>
		</layer>
		<layer id="26" name="329333_const" type="Const" version="opset1">
			<data element_type="f32" offset="2212" shape="" size="4"/>
			<output>
				<port id="1" precision="FP32"/>
			</output>
		</layer>
		<layer id="27" name="330334_const" type="Const" version="opset1">
			<data element_type="f32" offset="2216" shape="" size="4"/>
			<output>
				<port id="1" precision="FP32"/>
			</output>
		</layer>
		<layer id="28" name="331335_const" type="Const" version="opset1">
			<data element_type="f32" offset="2212" shape="" size="4"/>
			<output>
				<port id="1" precision="FP32"/>
			</output>
		</layer>
		<layer id="29" name="332336_const" type="Const" version="opset1">
			<data element_type="f32" offset="2216" shape="" size="4"/>
			<output>
				<port id="1" precision="FP32"/>
			</output>
		</layer>
		<layer id="30" name="72/WithoutBiases/fq_input_0" type="FakeQuantize" version="opset1">
			<data levels="256"/>
			<input>
				<port id="0">
					<dim>1</dim>
					<dim>16</dim>
					<dim>24</dim>
					<dim>24</dim>
				</port>
				<port id="1"/>
				<port id="2"/>
				<port id="3"/>
				<port id="4"/>
			</input>
			<output>
				<port id="5" precision="FP32">
					<dim>1</dim>
					<dim>16</dim>
					<dim>24</dim>
					<dim>24</dim>
				</port>
			</output>
		</layer>
		<layer id="31" name="onnx_initializer_node_14/Output_0/Data__const109_const" type="Const" version="opset1">
			<data element_type="f32" offset="2220" shape="32,16,3,3" size="18432"/>
			<output>
				<port id="1" precision="FP32">
					<dim>32</dim>
					<dim>16</dim>
					<dim>3</dim>
					<dim>3</dim>
				</port>
			</output>
		</layer>
		<layer id="32" name="339343_const" type="Const" version="opset1">
			<data element_type="f32" offset="20652" shape="32,1,1,1" size="128"/>
			<output>
				<port id="1" precision="FP32">
					<dim>32</dim>
					<dim>1</dim>
					<dim>1</dim>
					<dim>1</dim>
				</port>
			</output>
		</layer>
		<layer id="33" name="340344_const" type="Const" version="opset1">
			<data element_type="f32" offset="20780" shape="32,1,1,1" size="128"/>
			<output>
				<port id="1" precision="FP32">
					<dim>32</dim>
					<dim>1</dim>
					<dim>1</dim>
					<dim>1</dim>
				</port>
			</output>
		</layer>
		<layer id="34" name="341345_const" type="Const" version="opset1">
			<data element_type="f32" offset="20652" shape="32,1,1,1" size="128"/>
			<output>
				<port id="1" precision="FP32">
					<dim>32</dim>
					<dim>1</dim>
					<dim>1</dim>
					<dim>1</dim>
				</port>
			</output>
		</layer>
		<layer id="35" name="342346_const" type="Const" version="opset1">
			<data element_type="f32" offset="20780" shape="32,1,1,1" size="128"/>
			<output>
				<port id="1" precision="FP32">
					<dim>32</dim>
					<dim>1</dim>
					<dim>1</dim>
					<dim>1</dim>
				</port>
			</output>
		</layer>
		<layer id="36" name="72/WithoutBiases/fq_weights_1" type="FakeQuantize" version="opset1">
			<data levels="255"/>
			<input>
				<port id="0">
					<dim>32</dim>
					<dim>16</dim>
					<dim>3</dim>
					<dim>3</dim>
				</port>
				<port id="1">
					<dim>32</dim>
					<dim>1</dim>
					<dim>1</dim>
					<dim>1</dim>
				</port>
				<port id="2">
					<dim>32</dim>
					<dim>1</dim>
					<dim>1</dim>
					<dim>1</dim>
				</port>
				<port id="3">
					<dim>32</dim>
					<dim>1</dim>
					<dim>1</dim>
					<dim>1</dim>
				</port>
				<port id="4">
					<dim>32</dim>
					<dim>1</dim>
					<dim>1</dim>
					<dim>1</dim>
				</port>
			</input>
			<output>
				<port id="5" precision="FP32">
					<dim>32</dim>
					<dim>16</dim>
					<dim>3</dim>
					<dim>3</dim>
				</port>
			</output>
		</layer>
		<layer id="37" name="72/WithoutBiases" type="Convolution" version="opset1">
			<data dilations="1,1" output_padding="0,0" pads_begin="1,1" pads_end="1,1" strides="1,1"/>
			<input>
				<port id="0">
					<dim>1</dim>
					<dim>16</dim>
					<dim>24</dim>
					<dim>24</dim>
				</port>
				<port id="1">
					<dim>32</dim>
					<dim>16</dim>
					<dim>3</dim>
					<dim>3</dim>
				</port>
			</input>
			<output>
				<port id="2" precision="FP32">
					<dim>1</dim>
					<dim>32</dim>
					<dim>24</dim>
					<dim>24</dim>
				</port>
			</output>
		</layer>
		<layer id="38" name="72/Dims1153/copy_const111_const" type="Const" version="opset1">
			<data element_type="f32" offset="20908" shape="1,32,1,1" size="128"/>
			<output>
				<port id="1" precision="FP32">
					<dim>1</dim>
					<dim>32</dim>
					<dim>1</dim>
					<dim>1</dim>
				</port>
			</output>
		</layer>
		<layer id="39" name="72" type="Add" version="opset1">
			<input>
				<port id="0">
					<dim>1</dim>
					<dim>32</dim>
					<dim>24</dim>
					<dim>24</dim>
				</port>
				<port id="1">
					<dim>1</dim>
					<dim>32</dim>
					<dim>1</dim>
					<dim>1</dim>
				</port>
			</input>
			<output>
				<port id="2" precision="FP32">
					<dim>1</dim>
					<dim>32</dim>
					<dim>24</dim>
					<dim>24</dim>
				</port>
			</output>
		</layer>
		<layer id="40" name="73/Cast_13558_const113_const" type="Const" version="opset1">
			<data element_type="f32" offset="21036" shape="1" size="4"/>
			<output>
				<port id="1" precision="FP32">
					<dim>1</dim>
				</port>
			</output>
		</layer>
		<layer id="41" name="73" type="PReLU" version="opset1">
			<input>
				<port id="0">
					<dim>1</dim>
					<dim>32</dim>
					<dim>24</dim>
					<dim>24</dim>
				</port>
				<port id="1">
					<dim>1</dim>
				</port>
			</input>
			<output>
				<port id="2" precision="FP32">
					<dim>1</dim>
					<dim>32</dim>
					<dim>24</dim>
					<dim>24</dim>
				</port>
			</output>
		</layer>
		<layer id="42" name="671675_const" type="Const" version="opset1">
			<data element_type="f32" offset="21040" shape="" size="4"/>
			<output>
				<port id="1" precision="FP32"/>
			</output>
		</layer>
		<layer id="43" name="672676_const" type="Const" version="opset1">
			<data element_type="f32" offset="21044" shape="" size="4"/>
			<output>
				<port id="1" precision="FP32"/>
			</output>
		</layer>
		<layer id="44" name="673677_const" type="Const" version="opset1">
			<data element_type="f32" offset="21040" shape="" size="4"/>
			<output>
				<port id="1" precision="FP32"/>
			</output>
		</layer>
		<layer id="45" name="674678_const" type="Const" version="opset1">
			<data element_type="f32" offset="21044" shape="" size="4"/>
			<output>
				<port id="1" precision="FP32"/>
			</output>
		</layer>
		<layer id="46" name="74/fq_input_0" type="FakeQuantize" version="opset1">
			<data levels="256"/>
			<input>
				<port id="0">
					<dim>1</dim>
					<dim>32</dim>
					<dim>24</dim>
					<dim>24</dim>
				</port>
				<port id="1"/>
				<port id="2"/>
				<port id="3"/>
				<port id="4"/>
			</input>
			<output>
				<port id="5" precision="FP32">
					<dim>1</dim>
					<dim>32</dim>
					<dim>24</dim>
					<dim>24</dim>
				</port>
			</output>
		</layer>
		<layer id="47" name="74" type="MaxPool" version="opset1">
			<data kernel="2,2" pads_begin="0,0" pads_end="0,0" rounding_type="floor" strides="2,2"/>
			<input>
				<port id="0">
					<dim>1</dim>
					<dim>32</dim>
					<dim>24</dim>
					<dim>24</dim>
				</port>
			</input>
			<output>
				<port id="1" precision="FP32">
					<dim>1</dim>
					<dim>32</dim>
					<dim>12</dim>
					<dim>12</dim>
				</port>
			</output>
		</layer>
		<layer id="48" name="data_mul_18921896/copy_const116_const" type="Const" version="opset1">
			<data element_type="f32" offset="21048" shape="1,32,1,1" size="128"/>
			<output>
				<port id="1" precision="FP32">
					<dim>1</dim>
					<dim>32</dim>
					<dim>1</dim>
					<dim>1</dim>
				</port>
			</output>
		</layer>
		<layer id="49" name="Mul1_1686/Fused_Mul_" type="Multiply" version="opset1">
			<input>
				<port id="0">
					<dim>1</dim>
					<dim>32</dim>
					<dim>12</dim>
					<dim>12</dim>
				</port>
				<port id="1">
					<dim>1</dim>
					<dim>32</dim>
					<dim>1</dim>
					<dim>1</dim>
				</port>
			</input>
			<output>
				<port id="2" precision="FP32">
					<dim>1</dim>
					<dim>32</dim>
					<dim>12</dim>
					<dim>12</dim>
				</port>
			</output>
		</layer>
		<layer id="50" name="data_add_18931898/copy_const118_const" type="Const" version="opset1">
			<data element_type="f32" offset="21176" shape="1,32,1,1" size="128"/>
			<output>
				<port id="1" precision="FP32">
					<dim>1</dim>
					<dim>32</dim>
					<dim>1</dim>
					<dim>1</dim>
				</port>
			</output>
		</layer>
		<layer id="51" name="Add1_1687/Fused_Add_" type="Add" version="opset1">
			<input>
				<port id="0">
					<dim>1</dim>
					<dim>32</dim>
					<dim>12</dim>
					<dim>12</dim>
				</port>
				<port id="1">
					<dim>1</dim>
					<dim>32</dim>
					<dim>1</dim>
					<dim>1</dim>
				</port>
			</input>
			<output>
				<port id="2" precision="FP32">
					<dim>1</dim>
					<dim>32</dim>
					<dim>12</dim>
					<dim>12</dim>
				</port>
			</output>
		</layer>
		<layer id="52" name="409413_const" type="Const" version="opset1">
			<data element_type="f32" offset="21304" shape="" size="4"/>
			<output>
				<port id="1" precision="FP32"/>
			</output>
		</layer>
		<layer id="53" name="410414_const" type="Const" version="opset1">
			<data element_type="f32" offset="21308" shape="" size="4"/>
			<output>
				<port id="1" precision="FP32"/>
			</output>
		</layer>
		<layer id="54" name="411415_const" type="Const" version="opset1">
			<data element_type="f32" offset="21304" shape="" size="4"/>
			<output>
				<port id="1" precision="FP32"/>
			</output>
		</layer>
		<layer id="55" name="412416_const" type="Const" version="opset1">
			<data element_type="f32" offset="21308" shape="" size="4"/>
			<output>
				<port id="1" precision="FP32"/>
			</output>
		</layer>
		<layer id="56" name="76/WithoutBiases/fq_input_0" type="FakeQuantize" version="opset1">
			<data levels="256"/>
			<input>
				<port id="0">
					<dim>1</dim>
					<dim>32</dim>
					<dim>12</dim>
					<dim>12</dim>
				</port>
				<port id="1"/>
				<port id="2"/>
				<port id="3"/>
				<port id="4"/>
			</input>
			<output>
				<port id="5" precision="FP32">
					<dim>1</dim>
					<dim>32</dim>
					<dim>12</dim>
					<dim>12</dim>
				</port>
			</output>
		</layer>
		<layer id="57" name="onnx_initializer_node_22/Output_0/Data__const120_const" type="Const" version="opset1">
			<data element_type="f32" offset="21312" shape="64,32,3,3" size="73728"/>
			<output>
				<port id="1" precision="FP32">
					<dim>64</dim>
					<dim>32</dim>
					<dim>3</dim>
					<dim>3</dim>
				</port>
			</output>
		</layer>
		<layer id="58" name="419423_const" type="Const" version="opset1">
			<data element_type="f32" offset="95040" shape="64,1,1,1" size="256"/>
			<output>
				<port id="1" precision="FP32">
					<dim>64</dim>
					<dim>1</dim>
					<dim>1</dim>
					<dim>1</dim>
				</port>
			</output>
		</layer>
		<layer id="59" name="420424_const" type="Const" version="opset1">
			<data element_type="f32" offset="95296" shape="64,1,1,1" size="256"/>
			<output>
				<port id="1" precision="FP32">
					<dim>64</dim>
					<dim>1</dim>
					<dim>1</dim>
					<dim>1</dim>
				</port>
			</output>
		</layer>
		<layer id="60" name="421425_const" type="Const" version="opset1">
			<data element_type="f32" offset="95040" shape="64,1,1,1" size="256"/>
			<output>
				<port id="1" precision="FP32">
					<dim>64</dim>
					<dim>1</dim>
					<dim>1</dim>
					<dim>1</dim>
				</port>
			</output>
		</layer>
		<layer id="61" name="422426_const" type="Const" version="opset1">
			<data element_type="f32" offset="95296" shape="64,1,1,1" size="256"/>
			<output>
				<port id="1" precision="FP32">
					<dim>64</dim>
					<dim>1</dim>
					<dim>1</dim>
					<dim>1</dim>
				</port>
			</output>
		</layer>
		<layer id="62" name="76/WithoutBiases/fq_weights_1" type="FakeQuantize" version="opset1">
			<data levels="255"/>
			<input>
				<port id="0">
					<dim>64</dim>
					<dim>32</dim>
					<dim>3</dim>
					<dim>3</dim>
				</port>
				<port id="1">
					<dim>64</dim>
					<dim>1</dim>
					<dim>1</dim>
					<dim>1</dim>
				</port>
				<port id="2">
					<dim>64</dim>
					<dim>1</dim>
					<dim>1</dim>
					<dim>1</dim>
				</port>
				<port id="3">
					<dim>64</dim>
					<dim>1</dim>
					<dim>1</dim>
					<dim>1</dim>
				</port>
				<port id="4">
					<dim>64</dim>
					<dim>1</dim>
					<dim>1</dim>
					<dim>1</dim>
				</port>
			</input>
			<output>
				<port id="5" precision="FP32">
					<dim>64</dim>
					<dim>32</dim>
					<dim>3</dim>
					<dim>3</dim>
				</port>
			</output>
		</layer>
		<layer id="63" name="76/WithoutBiases" type="Convolution" version="opset1">
			<data dilations="1,1" output_padding="0,0" pads_begin="1,1" pads_end="1,1" strides="1,1"/>
			<input>
				<port id="0">
					<dim>1</dim>
					<dim>32</dim>
					<dim>12</dim>
					<dim>12</dim>
				</port>
				<port id="1">
					<dim>64</dim>
					<dim>32</dim>
					<dim>3</dim>
					<dim>3</dim>
				</port>
			</input>
			<output>
				<port id="2" precision="FP32">
					<dim>1</dim>
					<dim>64</dim>
					<dim>12</dim>
					<dim>12</dim>
				</port>
			</output>
		</layer>
		<layer id="64" name="76/Dims1183/copy_const122_const" type="Const" version="opset1">
			<data element_type="f32" offset="95552" shape="1,64,1,1" size="256"/>
			<output>
				<port id="1" precision="FP32">
					<dim>1</dim>
					<dim>64</dim>
					<dim>1</dim>
					<dim>1</dim>
				</port>
			</output>
		</layer>
		<layer id="65" name="76" type="Add" version="opset1">
			<input>
				<port id="0">
					<dim>1</dim>
					<dim>64</dim>
					<dim>12</dim>
					<dim>12</dim>
				</port>
				<port id="1">
					<dim>1</dim>
					<dim>64</dim>
					<dim>1</dim>
					<dim>1</dim>
				</port>
			</input>
			<output>
				<port id="2" precision="FP32">
					<dim>1</dim>
					<dim>64</dim>
					<dim>12</dim>
					<dim>12</dim>
				</port>
			</output>
		</layer>
		<layer id="66" name="77/Cast_13570_const124_const" type="Const" version="opset1">
			<data element_type="f32" offset="95808" shape="1" size="4"/>
			<output>
				<port id="1" precision="FP32">
					<dim>1</dim>
				</port>
			</output>
		</layer>
		<layer id="67" name="77" type="PReLU" version="opset1">
			<input>
				<port id="0">
					<dim>1</dim>
					<dim>64</dim>
					<dim>12</dim>
					<dim>12</dim>
				</port>
				<port id="1">
					<dim>1</dim>
				</port>
			</input>
			<output>
				<port id="2" precision="FP32">
					<dim>1</dim>
					<dim>64</dim>
					<dim>12</dim>
					<dim>12</dim>
				</port>
			</output>
		</layer>
		<layer id="68" name="681685_const" type="Const" version="opset1">
			<data element_type="f32" offset="95812" shape="" size="4"/>
			<output>
				<port id="1" precision="FP32"/>
			</output>
		</layer>
		<layer id="69" name="682686_const" type="Const" version="opset1">
			<data element_type="f32" offset="95816" shape="" size="4"/>
			<output>
				<port id="1" precision="FP32"/>
			</output>
		</layer>
		<layer id="70" name="683687_const" type="Const" version="opset1">
			<data element_type="f32" offset="95812" shape="" size="4"/>
			<output>
				<port id="1" precision="FP32"/>
			</output>
		</layer>
		<layer id="71" name="684688_const" type="Const" version="opset1">
			<data element_type="f32" offset="95816" shape="" size="4"/>
			<output>
				<port id="1" precision="FP32"/>
			</output>
		</layer>
		<layer id="72" name="78/fq_input_0" type="FakeQuantize" version="opset1">
			<data levels="256"/>
			<input>
				<port id="0">
					<dim>1</dim>
					<dim>64</dim>
					<dim>12</dim>
					<dim>12</dim>
				</port>
				<port id="1"/>
				<port id="2"/>
				<port id="3"/>
				<port id="4"/>
			</input>
			<output>
				<port id="5" precision="FP32">
					<dim>1</dim>
					<dim>64</dim>
					<dim>12</dim>
					<dim>12</dim>
				</port>
			</output>
		</layer>
		<layer id="73" name="78" type="MaxPool" version="opset1">
			<data kernel="2,2" pads_begin="0,0" pads_end="0,0" rounding_type="floor" strides="2,2"/>
			<input>
				<port id="0">
					<dim>1</dim>
					<dim>64</dim>
					<dim>12</dim>
					<dim>12</dim>
				</port>
			</input>
			<output>
				<port id="1" precision="FP32">
					<dim>1</dim>
					<dim>64</dim>
					<dim>6</dim>
					<dim>6</dim>
				</port>
			</output>
		</layer>
		<layer id="74" name="data_mul_19001904/copy_const127_const" type="Const" version="opset1">
			<data element_type="f32" offset="95820" shape="1,64,1,1" size="256"/>
			<output>
				<port id="1" precision="FP32">
					<dim>1</dim>
					<dim>64</dim>
					<dim>1</dim>
					<dim>1</dim>
				</port>
			</output>
		</layer>
		<layer id="75" name="Mul1_1698/Fused_Mul_" type="Multiply" version="opset1">
			<input>
				<port id="0">
					<dim>1</dim>
					<dim>64</dim>
					<dim>6</dim>
					<dim>6</dim>
				</port>
				<port id="1">
					<dim>1</dim>
					<dim>64</dim>
					<dim>1</dim>
					<dim>1</dim>
				</port>
			</input>
			<output>
				<port id="2" precision="FP32">
					<dim>1</dim>
					<dim>64</dim>
					<dim>6</dim>
					<dim>6</dim>
				</port>
			</output>
		</layer>
		<layer id="76" name="data_add_19011906/copy_const129_const" type="Const" version="opset1">
			<data element_type="f32" offset="96076" shape="1,64,1,1" size="256"/>
			<output>
				<port id="1" precision="FP32">
					<dim>1</dim>
					<dim>64</dim>
					<dim>1</dim>
					<dim>1</dim>
				</port>
			</output>
		</layer>
		<layer id="77" name="Add1_1699/Fused_Add_" type="Add" version="opset1">
			<input>
				<port id="0">
					<dim>1</dim>
					<dim>64</dim>
					<dim>6</dim>
					<dim>6</dim>
				</port>
				<port id="1">
					<dim>1</dim>
					<dim>64</dim>
					<dim>1</dim>
					<dim>1</dim>
				</port>
			</input>
			<output>
				<port id="2" precision="FP32">
					<dim>1</dim>
					<dim>64</dim>
					<dim>6</dim>
					<dim>6</dim>
				</port>
			</output>
		</layer>
		<layer id="78" name="349353_const" type="Const" version="opset1">
			<data element_type="f32" offset="96332" shape="" size="4"/>
			<output>
				<port id="1" precision="FP32"/>
			</output>
		</layer>
		<layer id="79" name="350354_const" type="Const" version="opset1">
			<data element_type="f32" offset="96336" shape="" size="4"/>
			<output>
				<port id="1" precision="FP32"/>
			</output>
		</layer>
		<layer id="80" name="351355_const" type="Const" version="opset1">
			<data element_type="f32" offset="96332" shape="" size="4"/>
			<output>
				<port id="1" precision="FP32"/>
			</output>
		</layer>
		<layer id="81" name="352356_const" type="Const" version="opset1">
			<data element_type="f32" offset="96336" shape="" size="4"/>
			<output>
				<port id="1" precision="FP32"/>
			</output>
		</layer>
		<layer id="82" name="80/WithoutBiases/fq_input_0" type="FakeQuantize" version="opset1">
			<data levels="256"/>
			<input>
				<port id="0">
					<dim>1</dim>
					<dim>64</dim>
					<dim>6</dim>
					<dim>6</dim>
				</port>
				<port id="1"/>
				<port id="2"/>
				<port id="3"/>
				<port id="4"/>
			</input>
			<output>
				<port id="5" precision="FP32">
					<dim>1</dim>
					<dim>64</dim>
					<dim>6</dim>
					<dim>6</dim>
				</port>
			</output>
		</layer>
		<layer id="83" name="onnx_initializer_node_30/Output_0/Data__const131_const" type="Const" version="opset1">
			<data element_type="f32" offset="96340" shape="64,64,3,3" size="147456"/>
			<output>
				<port id="1" precision="FP32">
					<dim>64</dim>
					<dim>64</dim>
					<dim>3</dim>
					<dim>3</dim>
				</port>
			</output>
		</layer>
		<layer id="84" name="359363_const" type="Const" version="opset1">
			<data element_type="f32" offset="243796" shape="64,1,1,1" size="256"/>
			<output>
				<port id="1" precision="FP32">
					<dim>64</dim>
					<dim>1</dim>
					<dim>1</dim>
					<dim>1</dim>
				</port>
			</output>
		</layer>
		<layer id="85" name="360364_const" type="Const" version="opset1">
			<data element_type="f32" offset="244052" shape="64,1,1,1" size="256"/>
			<output>
				<port id="1" precision="FP32">
					<dim>64</dim>
					<dim>1</dim>
					<dim>1</dim>
					<dim>1</dim>
				</port>
			</output>
		</layer>
		<layer id="86" name="361365_const" type="Const" version="opset1">
			<data element_type="f32" offset="243796" shape="64,1,1,1" size="256"/>
			<output>
				<port id="1" precision="FP32">
					<dim>64</dim>
					<dim>1</dim>
					<dim>1</dim>
					<dim>1</dim>
				</port>
			</output>
		</layer>
		<layer id="87" name="362366_const" type="Const" version="opset1">
			<data element_type="f32" offset="244052" shape="64,1,1,1" size="256"/>
			<output>
				<port id="1" precision="FP32">
					<dim>64</dim>
					<dim>1</dim>
					<dim>1</dim>
					<dim>1</dim>
				</port>
			</output>
		</layer>
		<layer id="88" name="80/WithoutBiases/fq_weights_1" type="FakeQuantize" version="opset1">
			<data levels="255"/>
			<input>
				<port id="0">
					<dim>64</dim>
					<dim>64</dim>
					<dim>3</dim>
					<dim>3</dim>
				</port>
				<port id="1">
					<dim>64</dim>
					<dim>1</dim>
					<dim>1</dim>
					<dim>1</dim>
				</port>
				<port id="2">
					<dim>64</dim>
					<dim>1</dim>
					<dim>1</dim>
					<dim>1</dim>
				</port>
				<port id="3">
					<dim>64</dim>
					<dim>1</dim>
					<dim>1</dim>
					<dim>1</dim>
				</port>
				<port id="4">
					<dim>64</dim>
					<dim>1</dim>
					<dim>1</dim>
					<dim>1</dim>
				</port>
			</input>
			<output>
				<port id="5" precision="FP32">
					<dim>64</dim>
					<dim>64</dim>
					<dim>3</dim>
					<dim>3</dim>
				</port>
			</output>
		</layer>
		<layer id="89" name="80/WithoutBiases" type="Convolution" version="opset1">
			<data dilations="1,1" output_padding="0,0" pads_begin="1,1" pads_end="1,1" strides="1,1"/>
			<input>
				<port id="0">
					<dim>1</dim>
					<dim>64</dim>
					<dim>6</dim>
					<dim>6</dim>
				</port>
				<port id="1">
					<dim>64</dim>
					<dim>64</dim>
					<dim>3</dim>
					<dim>3</dim>
				</port>
			</input>
			<output>
				<port id="2" precision="FP32">
					<dim>1</dim>
					<dim>64</dim>
					<dim>6</dim>
					<dim>6</dim>
				</port>
			</output>
		</layer>
		<layer id="90" name="80/Dims1159/copy_const133_const" type="Const" version="opset1">
			<data element_type="f32" offset="244308" shape="1,64,1,1" size="256"/>
			<output>
				<port id="1" precision="FP32">
					<dim>1</dim>
					<dim>64</dim>
					<dim>1</dim>
					<dim>1</dim>
				</port>
			</output>
		</layer>
		<layer id="91" name="80" type="Add" version="opset1">
			<input>
				<port id="0">
					<dim>1</dim>
					<dim>64</dim>
					<dim>6</dim>
					<dim>6</dim>
				</port>
				<port id="1">
					<dim>1</dim>
					<dim>64</dim>
					<dim>1</dim>
					<dim>1</dim>
				</port>
			</input>
			<output>
				<port id="2" precision="FP32">
					<dim>1</dim>
					<dim>64</dim>
					<dim>6</dim>
					<dim>6</dim>
				</port>
			</output>
		</layer>
		<layer id="92" name="81/Cast_13566_const135_const" type="Const" version="opset1">
			<data element_type="f32" offset="244564" shape="1" size="4"/>
			<output>
				<port id="1" precision="FP32">
					<dim>1</dim>
				</port>
			</output>
		</layer>
		<layer id="93" name="81" type="PReLU" version="opset1">
			<input>
				<port id="0">
					<dim>1</dim>
					<dim>64</dim>
					<dim>6</dim>
					<dim>6</dim>
				</port>
				<port id="1">
					<dim>1</dim>
				</port>
			</input>
			<output>
				<port id="2" precision="FP32">
					<dim>1</dim>
					<dim>64</dim>
					<dim>6</dim>
					<dim>6</dim>
				</port>
			</output>
		</layer>
		<layer id="94" name="459463_const" type="Const" version="opset1">
			<data element_type="f32" offset="21040" shape="" size="4"/>
			<output>
				<port id="1" precision="FP32"/>
			</output>
		</layer>
		<layer id="95" name="460464_const" type="Const" version="opset1">
			<data element_type="f32" offset="244568" shape="" size="4"/>
			<output>
				<port id="1" precision="FP32"/>
			</output>
		</layer>
		<layer id="96" name="461465_const" type="Const" version="opset1">
			<data element_type="f32" offset="21040" shape="" size="4"/>
			<output>
				<port id="1" precision="FP32"/>
			</output>
		</layer>
		<layer id="97" name="462466_const" type="Const" version="opset1">
			<data element_type="f32" offset="244568" shape="" size="4"/>
			<output>
				<port id="1" precision="FP32"/>
			</output>
		</layer>
		<layer id="98" name="Mul1_1710/Fused_Mul_/fq_input_0" type="FakeQuantize" version="opset1">
			<data levels="256"/>
			<input>
				<port id="0">
					<dim>1</dim>
					<dim>64</dim>
					<dim>6</dim>
					<dim>6</dim>
				</port>
				<port id="1"/>
				<port id="2"/>
				<port id="3"/>
				<port id="4"/>
			</input>
			<output>
				<port id="5" precision="FP32">
					<dim>1</dim>
					<dim>64</dim>
					<dim>6</dim>
					<dim>6</dim>
				</port>
			</output>
		</layer>
		<layer id="99" name="data_mul_19081912/copy_const137_const" type="Const" version="opset1">
			<data element_type="f32" offset="244572" shape="1,64,1,1" size="256"/>
			<output>
				<port id="1" precision="FP32">
					<dim>1</dim>
					<dim>64</dim>
					<dim>1</dim>
					<dim>1</dim>
				</port>
			</output>
		</layer>
		<layer id="100" name="Mul1_1710/Fused_Mul_" type="Multiply" version="opset1">
			<input>
				<port id="0">
					<dim>1</dim>
					<dim>64</dim>
					<dim>6</dim>
					<dim>6</dim>
				</port>
				<port id="1">
					<dim>1</dim>
					<dim>64</dim>
					<dim>1</dim>
					<dim>1</dim>
				</port>
			</input>
			<output>
				<port id="2" precision="FP32">
					<dim>1</dim>
					<dim>64</dim>
					<dim>6</dim>
					<dim>6</dim>
				</port>
			</output>
		</layer>
		<layer id="101" name="data_add_19091914/copy_const139_const" type="Const" version="opset1">
			<data element_type="f32" offset="244828" shape="1,64,1,1" size="256"/>
			<output>
				<port id="1" precision="FP32">
					<dim>1</dim>
					<dim>64</dim>
					<dim>1</dim>
					<dim>1</dim>
				</port>
			</output>
		</layer>
		<layer id="102" name="Add1_1711/Fused_Add_" type="Add" version="opset1">
			<input>
				<port id="0">
					<dim>1</dim>
					<dim>64</dim>
					<dim>6</dim>
					<dim>6</dim>
				</port>
				<port id="1">
					<dim>1</dim>
					<dim>64</dim>
					<dim>1</dim>
					<dim>1</dim>
				</port>
			</input>
			<output>
				<port id="2" precision="FP32">
					<dim>1</dim>
					<dim>64</dim>
					<dim>6</dim>
					<dim>6</dim>
				</port>
			</output>
		</layer>
		<layer id="103" name="479483_const" type="Const" version="opset1">
			<data element_type="f32" offset="245084" shape="" size="4"/>
			<output>
				<port id="1" precision="FP32"/>
			</output>
		</layer>
		<layer id="104" name="480484_const" type="Const" version="opset1">
			<data element_type="f32" offset="245088" shape="" size="4"/>
			<output>
				<port id="1" precision="FP32"/>
			</output>
		</layer>
		<layer id="105" name="481485_const" type="Const" version="opset1">
			<data element_type="f32" offset="245084" shape="" size="4"/>
			<output>
				<port id="1" precision="FP32"/>
			</output>
		</layer>
		<layer id="106" name="482486_const" type="Const" version="opset1">
			<data element_type="f32" offset="245088" shape="" size="4"/>
			<output>
				<port id="1" precision="FP32"/>
			</output>
		</layer>
		<layer id="107" name="83/WithoutBiases/fq_input_0" type="FakeQuantize" version="opset1">
			<data levels="256"/>
			<input>
				<port id="0">
					<dim>1</dim>
					<dim>64</dim>
					<dim>6</dim>
					<dim>6</dim>
				</port>
				<port id="1"/>
				<port id="2"/>
				<port id="3"/>
				<port id="4"/>
			</input>
			<output>
				<port id="5" precision="FP32">
					<dim>1</dim>
					<dim>64</dim>
					<dim>6</dim>
					<dim>6</dim>
				</port>
			</output>
		</layer>
		<layer id="108" name="onnx_initializer_node_38/Output_0/Data__const141_const" type="Const" version="opset1">
			<data element_type="f32" offset="245092" shape="128,64,3,3" size="294912"/>
			<output>
				<port id="1" precision="FP32">
					<dim>128</dim>
					<dim>64</dim>
					<dim>3</dim>
					<dim>3</dim>
				</port>
			</output>
		</layer>
		<layer id="109" name="489493_const" type="Const" version="opset1">
			<data element_type="f32" offset="540004" shape="128,1,1,1" size="512"/>
			<output>
				<port id="1" precision="FP32">
					<dim>128</dim>
					<dim>1</dim>
					<dim>1</dim>
					<dim>1</dim>
				</port>
			</output>
		</layer>
		<layer id="110" name="490494_const" type="Const" version="opset1">
			<data element_type="f32" offset="540516" shape="128,1,1,1" size="512"/>
			<output>
				<port id="1" precision="FP32">
					<dim>128</dim>
					<dim>1</dim>
					<dim>1</dim>
					<dim>1</dim>
				</port>
			</output>
		</layer>
		<layer id="111" name="491495_const" type="Const" version="opset1">
			<data element_type="f32" offset="540004" shape="128,1,1,1" size="512"/>
			<output>
				<port id="1" precision="FP32">
					<dim>128</dim>
					<dim>1</dim>
					<dim>1</dim>
					<dim>1</dim>
				</port>
			</output>
		</layer>
		<layer id="112" name="492496_const" type="Const" version="opset1">
			<data element_type="f32" offset="540516" shape="128,1,1,1" size="512"/>
			<output>
				<port id="1" precision="FP32">
					<dim>128</dim>
					<dim>1</dim>
					<dim>1</dim>
					<dim>1</dim>
				</port>
			</output>
		</layer>
		<layer id="113" name="83/WithoutBiases/fq_weights_1" type="FakeQuantize" version="opset1">
			<data levels="255"/>
			<input>
				<port id="0">
					<dim>128</dim>
					<dim>64</dim>
					<dim>3</dim>
					<dim>3</dim>
				</port>
				<port id="1">
					<dim>128</dim>
					<dim>1</dim>
					<dim>1</dim>
					<dim>1</dim>
				</port>
				<port id="2">
					<dim>128</dim>
					<dim>1</dim>
					<dim>1</dim>
					<dim>1</dim>
				</port>
				<port id="3">
					<dim>128</dim>
					<dim>1</dim>
					<dim>1</dim>
					<dim>1</dim>
				</port>
				<port id="4">
					<dim>128</dim>
					<dim>1</dim>
					<dim>1</dim>
					<dim>1</dim>
				</port>
			</input>
			<output>
				<port id="5" precision="FP32">
					<dim>128</dim>
					<dim>64</dim>
					<dim>3</dim>
					<dim>3</dim>
				</port>
			</output>
		</layer>
		<layer id="114" name="83/WithoutBiases" type="Convolution" version="opset1">
			<data dilations="1,1" output_padding="0,0" pads_begin="1,1" pads_end="1,1" strides="1,1"/>
			<input>
				<port id="0">
					<dim>1</dim>
					<dim>64</dim>
					<dim>6</dim>
					<dim>6</dim>
				</port>
				<port id="1">
					<dim>128</dim>
					<dim>64</dim>
					<dim>3</dim>
					<dim>3</dim>
				</port>
			</input>
			<output>
				<port id="2" precision="FP32">
					<dim>1</dim>
					<dim>128</dim>
					<dim>6</dim>
					<dim>6</dim>
				</port>
			</output>
		</layer>
		<layer id="115" name="83/Dims1177/copy_const143_const" type="Const" version="opset1">
			<data element_type="f32" offset="541028" shape="1,128,1,1" size="512"/>
			<output>
				<port id="1" precision="FP32">
					<dim>1</dim>
					<dim>128</dim>
					<dim>1</dim>
					<dim>1</dim>
				</port>
			</output>
		</layer>
		<layer id="116" name="83" type="Add" version="opset1">
			<input>
				<port id="0">
					<dim>1</dim>
					<dim>128</dim>
					<dim>6</dim>
					<dim>6</dim>
				</port>
				<port id="1">
					<dim>1</dim>
					<dim>128</dim>
					<dim>1</dim>
					<dim>1</dim>
				</port>
			</input>
			<output>
				<port id="2" precision="FP32">
					<dim>1</dim>
					<dim>128</dim>
					<dim>6</dim>
					<dim>6</dim>
				</port>
			</output>
		</layer>
		<layer id="117" name="84/Cast_13562_const145_const" type="Const" version="opset1">
			<data element_type="f32" offset="541540" shape="1" size="4"/>
			<output>
				<port id="1" precision="FP32">
					<dim>1</dim>
				</port>
			</output>
		</layer>
		<layer id="118" name="84" type="PReLU" version="opset1">
			<input>
				<port id="0">
					<dim>1</dim>
					<dim>128</dim>
					<dim>6</dim>
					<dim>6</dim>
				</port>
				<port id="1">
					<dim>1</dim>
				</port>
			</input>
			<output>
				<port id="2" precision="FP32">
					<dim>1</dim>
					<dim>128</dim>
					<dim>6</dim>
					<dim>6</dim>
				</port>
			</output>
		</layer>
		<layer id="119" name="379383_const" type="Const" version="opset1">
			<data element_type="f32" offset="21040" shape="" size="4"/>
			<output>
				<port id="1" precision="FP32"/>
			</output>
		</layer>
		<layer id="120" name="380384_const" type="Const" version="opset1">
			<data element_type="f32" offset="541544" shape="" size="4"/>
			<output>
				<port id="1" precision="FP32"/>
			</output>
		</layer>
		<layer id="121" name="381385_const" type="Const" version="opset1">
			<data element_type="f32" offset="21040" shape="" size="4"/>
			<output>
				<port id="1" precision="FP32"/>
			</output>
		</layer>
		<layer id="122" name="382386_const" type="Const" version="opset1">
			<data element_type="f32" offset="541544" shape="" size="4"/>
			<output>
				<port id="1" precision="FP32"/>
			</output>
		</layer>
		<layer id="123" name="Mul1_1722/Fused_Mul_/fq_input_0" type="FakeQuantize" version="opset1">
			<data levels="256"/>
			<input>
				<port id="0">
					<dim>1</dim>
					<dim>128</dim>
					<dim>6</dim>
					<dim>6</dim>
				</port>
				<port id="1"/>
				<port id="2"/>
				<port id="3"/>
				<port id="4"/>
			</input>
			<output>
				<port id="5" precision="FP32">
					<dim>1</dim>
					<dim>128</dim>
					<dim>6</dim>
					<dim>6</dim>
				</port>
			</output>
		</layer>
		<layer id="124" name="data_mul_19161920/copy_const147_const" type="Const" version="opset1">
			<data element_type="f32" offset="541548" shape="1,128,1,1" size="512"/>
			<output>
				<port id="1" precision="FP32">
					<dim>1</dim>
					<dim>128</dim>
					<dim>1</dim>
					<dim>1</dim>
				</port>
			</output>
		</layer>
		<layer id="125" name="Mul1_1722/Fused_Mul_" type="Multiply" version="opset1">
			<input>
				<port id="0">
					<dim>1</dim>
					<dim>128</dim>
					<dim>6</dim>
					<dim>6</dim>
				</port>
				<port id="1">
					<dim>1</dim>
					<dim>128</dim>
					<dim>1</dim>
					<dim>1</dim>
				</port>
			</input>
			<output>
				<port id="2" precision="FP32">
					<dim>1</dim>
					<dim>128</dim>
					<dim>6</dim>
					<dim>6</dim>
				</port>
			</output>
		</layer>
		<layer id="126" name="data_add_19171922/copy_const149_const" type="Const" version="opset1">
			<data element_type="f32" offset="542060" shape="1,128,1,1" size="512"/>
			<output>
				<port id="1" precision="FP32">
					<dim>1</dim>
					<dim>128</dim>
					<dim>1</dim>
					<dim>1</dim>
				</port>
			</output>
		</layer>
		<layer id="127" name="Add1_1723/Fused_Add_" type="Add" version="opset1">
			<input>
				<port id="0">
					<dim>1</dim>
					<dim>128</dim>
					<dim>6</dim>
					<dim>6</dim>
				</port>
				<port id="1">
					<dim>1</dim>
					<dim>128</dim>
					<dim>1</dim>
					<dim>1</dim>
				</port>
			</input>
			<output>
				<port id="2" precision="FP32">
					<dim>1</dim>
					<dim>128</dim>
					<dim>6</dim>
					<dim>6</dim>
				</port>
			</output>
		</layer>
		<layer id="128" name="269273_const" type="Const" version="opset1">
			<data element_type="f32" offset="542572" shape="1,128,1,1" size="512"/>
			<output>
				<port id="1" precision="FP32">
					<dim>1</dim>
					<dim>128</dim>
					<dim>1</dim>
					<dim>1</dim>
				</port>
			</output>
		</layer>
		<layer id="129" name="270274_const" type="Const" version="opset1">
			<data element_type="f32" offset="543084" shape="1,128,1,1" size="512"/>
			<output>
				<port id="1" precision="FP32">
					<dim>1</dim>
					<dim>128</dim>
					<dim>1</dim>
					<dim>1</dim>
				</port>
			</output>
		</layer>
		<layer id="130" name="271275_const" type="Const" version="opset1">
			<data element_type="f32" offset="542572" shape="1,128,1,1" size="512"/>
			<output>
				<port id="1" precision="FP32">
					<dim>1</dim>
					<dim>128</dim>
					<dim>1</dim>
					<dim>1</dim>
				</port>
			</output>
		</layer>
		<layer id="131" name="272276_const" type="Const" version="opset1">
			<data element_type="f32" offset="543084" shape="1,128,1,1" size="512"/>
			<output>
				<port id="1" precision="FP32">
					<dim>1</dim>
					<dim>128</dim>
					<dim>1</dim>
					<dim>1</dim>
				</port>
			</output>
		</layer>
		<layer id="132" name="86/WithoutBiases/fq_input_0" type="FakeQuantize" version="opset1">
			<data levels="256"/>
			<input>
				<port id="0">
					<dim>1</dim>
					<dim>128</dim>
					<dim>6</dim>
					<dim>6</dim>
				</port>
				<port id="1">
					<dim>1</dim>
					<dim>128</dim>
					<dim>1</dim>
					<dim>1</dim>
				</port>
				<port id="2">
					<dim>1</dim>
					<dim>128</dim>
					<dim>1</dim>
					<dim>1</dim>
				</port>
				<port id="3">
					<dim>1</dim>
					<dim>128</dim>
					<dim>1</dim>
					<dim>1</dim>
				</port>
				<port id="4">
					<dim>1</dim>
					<dim>128</dim>
					<dim>1</dim>
					<dim>1</dim>
				</port>
			</input>
			<output>
				<port id="5" precision="FP32">
					<dim>1</dim>
					<dim>128</dim>
					<dim>6</dim>
					<dim>6</dim>
				</port>
			</output>
		</layer>
		<layer id="133" name="222182_const" type="Const" version="opset1">
			<data element_type="f32" offset="543596" shape="128,1,6,6" size="18432"/>
			<output>
				<port id="1" precision="FP32">
					<dim>128</dim>
					<dim>1</dim>
					<dim>6</dim>
					<dim>6</dim>
				</port>
			</output>
		</layer>
		<layer id="134" name="279283_const" type="Const" version="opset1">
			<data element_type="f32" offset="562028" shape="128,1,1,1" size="512"/>
			<output>
				<port id="1" precision="FP32">
					<dim>128</dim>
					<dim>1</dim>
					<dim>1</dim>
					<dim>1</dim>
				</port>
			</output>
		</layer>
		<layer id="135" name="280284_const" type="Const" version="opset1">
			<data element_type="f32" offset="562540" shape="128,1,1,1" size="512"/>
			<output>
				<port id="1" precision="FP32">
					<dim>128</dim>
					<dim>1</dim>
					<dim>1</dim>
					<dim>1</dim>
				</port>
			</output>
		</layer>
		<layer id="136" name="281285_const" type="Const" version="opset1">
			<data element_type="f32" offset="562028" shape="128,1,1,1" size="512"/>
			<output>
				<port id="1" precision="FP32">
					<dim>128</dim>
					<dim>1</dim>
					<dim>1</dim>
					<dim>1</dim>
				</port>
			</output>
		</layer>
		<layer id="137" name="282286_const" type="Const" version="opset1">
			<data element_type="f32" offset="562540" shape="128,1,1,1" size="512"/>
			<output>
				<port id="1" precision="FP32">
					<dim>128</dim>
					<dim>1</dim>
					<dim>1</dim>
					<dim>1</dim>
				</port>
			</output>
		</layer>
		<layer id="138" name="86/WithoutBiases/fq_weights_1" type="FakeQuantize" version="opset1">
			<data levels="255"/>
			<input>
				<port id="0">
					<dim>128</dim>
					<dim>1</dim>
					<dim>6</dim>
					<dim>6</dim>
				</port>
				<port id="1">
					<dim>128</dim>
					<dim>1</dim>
					<dim>1</dim>
					<dim>1</dim>
				</port>
				<port id="2">
					<dim>128</dim>
					<dim>1</dim>
					<dim>1</dim>
					<dim>1</dim>
				</port>
				<port id="3">
					<dim>128</dim>
					<dim>1</dim>
					<dim>1</dim>
					<dim>1</dim>
				</port>
				<port id="4">
					<dim>128</dim>
					<dim>1</dim>
					<dim>1</dim>
					<dim>1</dim>
				</port>
			</input>
			<output>
				<port id="5" precision="FP32">
					<dim>128</dim>
					<dim>1</dim>
					<dim>6</dim>
					<dim>6</dim>
				</port>
			</output>
		</layer>
		<layer id="139" name="1470/value1472_const" type="Const" version="opset1">
			<data element_type="i64" offset="563052" shape="5" size="40"/>
			<output>
				<port id="1" precision="I64">
					<dim>5</dim>
				</port>
			</output>
		</layer>
		<layer id="140" name="1470" type="Reshape" version="opset1">
			<data special_zero="True"/>
			<input>
				<port id="0">
					<dim>128</dim>
					<dim>1</dim>
					<dim>6</dim>
					<dim>6</dim>
				</port>
				<port id="1">
					<dim>5</dim>
				</port>
			</input>
			<output>
				<port id="2" precision="FP32">
					<dim>128</dim>
					<dim>1</dim>
					<dim>1</dim>
					<dim>6</dim>
					<dim>6</dim>
				</port>
			</output>
		</layer>
		<layer id="141" name="86/WithoutBiases" type="GroupConvolution" version="opset1">
			<data dilations="1,1" output_padding="0,0" pads_begin="0,0" pads_end="0,0" strides="1,1"/>
			<input>
				<port id="0">
					<dim>1</dim>
					<dim>128</dim>
					<dim>6</dim>
					<dim>6</dim>
				</port>
				<port id="1">
					<dim>128</dim>
					<dim>1</dim>
					<dim>1</dim>
					<dim>6</dim>
					<dim>6</dim>
				</port>
			</input>
			<output>
				<port id="2" precision="FP32">
					<dim>1</dim>
					<dim>128</dim>
					<dim>1</dim>
					<dim>1</dim>
				</port>
			</output>
		</layer>
		<layer id="142" name="86/Dims1141/copy_const153_const" type="Const" version="opset1">
			<data element_type="f32" offset="563092" shape="1,128,1,1" size="512"/>
			<output>
				<port id="1" precision="FP32">
					<dim>1</dim>
					<dim>128</dim>
					<dim>1</dim>
					<dim>1</dim>
				</port>
			</output>
		</layer>
		<layer id="143" name="86" type="Add" version="opset1">
			<input>
				<port id="0">
					<dim>1</dim>
					<dim>128</dim>
					<dim>1</dim>
					<dim>1</dim>
				</port>
				<port id="1">
					<dim>1</dim>
					<dim>128</dim>
					<dim>1</dim>
					<dim>1</dim>
				</port>
			</input>
			<output>
				<port id="2" precision="FP32">
					<dim>1</dim>
					<dim>128</dim>
					<dim>1</dim>
					<dim>1</dim>
				</port>
			</output>
		</layer>
		<layer id="144" name="87/Cast_13568_const155_const" type="Const" version="opset1">
			<data element_type="f32" offset="563604" shape="1" size="4"/>
			<output>
				<port id="1" precision="FP32">
					<dim>1</dim>
				</port>
			</output>
		</layer>
		<layer id="145" name="87" type="PReLU" version="opset1">
			<input>
				<port id="0">
					<dim>1</dim>
					<dim>128</dim>
					<dim>1</dim>
					<dim>1</dim>
				</port>
				<port id="1">
					<dim>1</dim>
				</port>
			</input>
			<output>
				<port id="2" precision="FP32">
					<dim>1</dim>
					<dim>128</dim>
					<dim>1</dim>
					<dim>1</dim>
				</port>
			</output>
		</layer>
		<layer id="146" name="389393_const" type="Const" version="opset1">
			<data element_type="f32" offset="563608" shape="" size="4"/>
			<output>
				<port id="1" precision="FP32"/>
			</output>
		</layer>
		<layer id="147" name="390394_const" type="Const" version="opset1">
			<data element_type="f32" offset="563612" shape="" size="4"/>
			<output>
				<port id="1" precision="FP32"/>
			</output>
		</layer>
		<layer id="148" name="391395_const" type="Const" version="opset1">
			<data element_type="f32" offset="563608" shape="" size="4"/>
			<output>
				<port id="1" precision="FP32"/>
			</output>
		</layer>
		<layer id="149" name="392396_const" type="Const" version="opset1">
			<data element_type="f32" offset="563612" shape="" size="4"/>
			<output>
				<port id="1" precision="FP32"/>
			</output>
		</layer>
		<layer id="150" name="Mul1_1734/Fused_Mul_/fq_input_0" type="FakeQuantize" version="opset1">
			<data levels="256"/>
			<input>
				<port id="0">
					<dim>1</dim>
					<dim>128</dim>
					<dim>1</dim>
					<dim>1</dim>
				</port>
				<port id="1"/>
				<port id="2"/>
				<port id="3"/>
				<port id="4"/>
			</input>
			<output>
				<port id="5" precision="FP32">
					<dim>1</dim>
					<dim>128</dim>
					<dim>1</dim>
					<dim>1</dim>
				</port>
			</output>
		</layer>
		<layer id="151" name="data_mul_19241928/copy_const157_const" type="Const" version="opset1">
			<data element_type="f32" offset="563616" shape="1,128,1,1" size="512"/>
			<output>
				<port id="1" precision="FP32">
					<dim>1</dim>
					<dim>128</dim>
					<dim>1</dim>
					<dim>1</dim>
				</port>
			</output>
		</layer>
		<layer id="152" name="Mul1_1734/Fused_Mul_" type="Multiply" version="opset1">
			<input>
				<port id="0">
					<dim>1</dim>
					<dim>128</dim>
					<dim>1</dim>
					<dim>1</dim>
				</port>
				<port id="1">
					<dim>1</dim>
					<dim>128</dim>
					<dim>1</dim>
					<dim>1</dim>
				</port>
			</input>
			<output>
				<port id="2" precision="FP32">
					<dim>1</dim>
					<dim>128</dim>
					<dim>1</dim>
					<dim>1</dim>
				</port>
			</output>
		</layer>
		<layer id="153" name="data_add_19251930/copy_const159_const" type="Const" version="opset1">
			<data element_type="f32" offset="564128" shape="1,128,1,1" size="512"/>
			<output>
				<port id="1" precision="FP32">
					<dim>1</dim>
					<dim>128</dim>
					<dim>1</dim>
					<dim>1</dim>
				</port>
			</output>
		</layer>
		<layer id="154" name="Add1_1735/Fused_Add_" type="Add" version="opset1">
			<input>
				<port id="0">
					<dim>1</dim>
					<dim>128</dim>
					<dim>1</dim>
					<dim>1</dim>
				</port>
				<port id="1">
					<dim>1</dim>
					<dim>128</dim>
					<dim>1</dim>
					<dim>1</dim>
				</port>
			</input>
			<output>
				<port id="2" precision="FP32">
					<dim>1</dim>
					<dim>128</dim>
					<dim>1</dim>
					<dim>1</dim>
				</port>
			</output>
		</layer>
		<layer id="155" name="onnx_initializer_node_54/Output_0/Data__const161_const" type="Const" version="opset1">
			<data element_type="f32" offset="564640" shape="256,128,1,1" size="131072"/>
			<output>
				<port id="1" precision="FP32">
					<dim>256</dim>
					<dim>128</dim>
					<dim>1</dim>
					<dim>1</dim>
				</port>
			</output>
		</layer>
		<layer id="156" name="89/WithoutBiases" type="Convolution" version="opset1">
			<data dilations="1,1" output_padding="0,0" pads_begin="0,0" pads_end="0,0" strides="1,1"/>
			<input>
				<port id="0">
					<dim>1</dim>
					<dim>128</dim>
					<dim>1</dim>
					<dim>1</dim>
				</port>
				<port id="1">
					<dim>256</dim>
					<dim>128</dim>
					<dim>1</dim>
					<dim>1</dim>
				</port>
			</input>
			<output>
				<port id="2" precision="FP32">
					<dim>1</dim>
					<dim>256</dim>
					<dim>1</dim>
					<dim>1</dim>
				</port>
			</output>
		</layer>
		<layer id="157" name="89/Dims1165/copy_const163_const" type="Const" version="opset1">
			<data element_type="f32" offset="695712" shape="1,256,1,1" size="1024"/>
			<output>
				<port id="1" precision="FP32">
					<dim>1</dim>
					<dim>256</dim>
					<dim>1</dim>
					<dim>1</dim>
				</port>
			</output>
		</layer>
		<layer id="158" name="89" type="Add" version="opset1">
			<input>
				<port id="0">
					<dim>1</dim>
					<dim>256</dim>
					<dim>1</dim>
					<dim>1</dim>
				</port>
				<port id="1">
					<dim>1</dim>
					<dim>256</dim>
					<dim>1</dim>
					<dim>1</dim>
				</port>
			</input>
			<output>
				<port id="2" precision="FP32">
					<dim>1</dim>
					<dim>256</dim>
					<dim>1</dim>
					<dim>1</dim>
				</port>
			</output>
		</layer>
		<layer id="159" name="90/Cast_13560_const165_const" type="Const" version="opset1">
			<data element_type="f32" offset="696736" shape="1" size="4"/>
			<output>
				<port id="1" precision="FP32">
					<dim>1</dim>
				</port>
			</output>
		</layer>
		<layer id="160" name="90" type="PReLU" version="opset1">
			<input>
				<port id="0">
					<dim>1</dim>
					<dim>256</dim>
					<dim>1</dim>
					<dim>1</dim>
				</port>
				<port id="1">
					<dim>1</dim>
				</port>
			</input>
			<output>
				<port id="2" precision="FP32">
					<dim>1</dim>
					<dim>256</dim>
					<dim>1</dim>
					<dim>1</dim>
				</port>
			</output>
		</layer>
		<layer id="161" name="469473_const" type="Const" version="opset1">
			<data element_type="f32" offset="21040" shape="" size="4"/>
			<output>
				<port id="1" precision="FP32"/>
			</output>
		</layer>
		<layer id="162" name="470474_const" type="Const" version="opset1">
			<data element_type="f32" offset="696740" shape="" size="4"/>
			<output>
				<port id="1" precision="FP32"/>
			</output>
		</layer>
		<layer id="163" name="471475_const" type="Const" version="opset1">
			<data element_type="f32" offset="21040" shape="" size="4"/>
			<output>
				<port id="1" precision="FP32"/>
			</output>
		</layer>
		<layer id="164" name="472476_const" type="Const" version="opset1">
			<data element_type="f32" offset="696740" shape="" size="4"/>
			<output>
				<port id="1" precision="FP32"/>
			</output>
		</layer>
		<layer id="165" name="Mul1_1746/Fused_Mul_/fq_input_0" type="FakeQuantize" version="opset1">
			<data levels="256"/>
			<input>
				<port id="0">
					<dim>1</dim>
					<dim>256</dim>
					<dim>1</dim>
					<dim>1</dim>
				</port>
				<port id="1"/>
				<port id="2"/>
				<port id="3"/>
				<port id="4"/>
			</input>
			<output>
				<port id="5" precision="FP32">
					<dim>1</dim>
					<dim>256</dim>
					<dim>1</dim>
					<dim>1</dim>
				</port>
			</output>
		</layer>
		<layer id="166" name="data_mul_19321936/copy_const167_const" type="Const" version="opset1">
			<data element_type="f32" offset="696744" shape="1,256,1,1" size="1024"/>
			<output>
				<port id="1" precision="FP32">
					<dim>1</dim>
					<dim>256</dim>
					<dim>1</dim>
					<dim>1</dim>
				</port>
			</output>
		</layer>
		<layer id="167" name="Mul1_1746/Fused_Mul_" type="Multiply" version="opset1">
			<input>
				<port id="0">
					<dim>1</dim>
					<dim>256</dim>
					<dim>1</dim>
					<dim>1</dim>
				</port>
				<port id="1">
					<dim>1</dim>
					<dim>256</dim>
					<dim>1</dim>
					<dim>1</dim>
				</port>
			</input>
			<output>
				<port id="2" precision="FP32">
					<dim>1</dim>
					<dim>256</dim>
					<dim>1</dim>
					<dim>1</dim>
				</port>
			</output>
		</layer>
		<layer id="168" name="data_add_19331938/copy_const169_const" type="Const" version="opset1">
			<data element_type="f32" offset="697768" shape="1,256,1,1" size="1024"/>
			<output>
				<port id="1" precision="FP32">
					<dim>1</dim>
					<dim>256</dim>
					<dim>1</dim>
					<dim>1</dim>
				</port>
			</output>
		</layer>
		<layer id="169" name="Add1_1747/Fused_Add_" type="Add" version="opset1">
			<input>
				<port id="0">
					<dim>1</dim>
					<dim>256</dim>
					<dim>1</dim>
					<dim>1</dim>
				</port>
				<port id="1">
					<dim>1</dim>
					<dim>256</dim>
					<dim>1</dim>
					<dim>1</dim>
				</port>
			</input>
			<output>
				<port id="2" precision="FP32">
					<dim>1</dim>
					<dim>256</dim>
					<dim>1</dim>
					<dim>1</dim>
				</port>
			</output>
		</layer>
		<layer id="170" name="onnx_initializer_node_62/Output_0/Data__const171_const" type="Const" version="opset1">
			<data element_type="f32" offset="698792" shape="64,256,1,1" size="65536"/>
			<output>
				<port id="1" precision="FP32">
					<dim>64</dim>
					<dim>256</dim>
					<dim>1</dim>
					<dim>1</dim>
				</port>
			</output>
		</layer>
		<layer id="171" name="92/WithoutBiases" type="Convolution" version="opset1">
			<data dilations="1,1" output_padding="0,0" pads_begin="0,0" pads_end="0,0" strides="1,1"/>
			<input>
				<port id="0">
					<dim>1</dim>
					<dim>256</dim>
					<dim>1</dim>
					<dim>1</dim>
				</port>
				<port id="1">
					<dim>64</dim>
					<dim>256</dim>
					<dim>1</dim>
					<dim>1</dim>
				</port>
			</input>
			<output>
				<port id="2" precision="FP32">
					<dim>1</dim>
					<dim>64</dim>
					<dim>1</dim>
					<dim>1</dim>
				</port>
			</output>
		</layer>
		<layer id="172" name="92/Dims1189/copy_const173_const" type="Const" version="opset1">
			<data element_type="f32" offset="764328" shape="1,64,1,1" size="256"/>
			<output>
				<port id="1" precision="FP32">
					<dim>1</dim>
					<dim>64</dim>
					<dim>1</dim>
					<dim>1</dim>
				</port>
			</output>
		</layer>
		<layer id="173" name="92" type="Add" version="opset1">
			<input>
				<port id="0">
					<dim>1</dim>
					<dim>64</dim>
					<dim>1</dim>
					<dim>1</dim>
				</port>
				<port id="1">
					<dim>1</dim>
					<dim>64</dim>
					<dim>1</dim>
					<dim>1</dim>
				</port>
			</input>
			<output>
				<port id="2" precision="FP32">
					<dim>1</dim>
					<dim>64</dim>
					<dim>1</dim>
					<dim>1</dim>
				</port>
			</output>
		</layer>
		<layer id="174" name="93/Cast_13556_const175_const" type="Const" version="opset1">
			<data element_type="f32" offset="764584" shape="1" size="4"/>
			<output>
				<port id="1" precision="FP32">
					<dim>1</dim>
				</port>
			</output>
		</layer>
		<layer id="175" name="93" type="PReLU" version="opset1">
			<input>
				<port id="0">
					<dim>1</dim>
					<dim>64</dim>
					<dim>1</dim>
					<dim>1</dim>
				</port>
				<port id="1">
					<dim>1</dim>
				</port>
			</input>
			<output>
				<port id="2" precision="FP32">
					<dim>1</dim>
					<dim>64</dim>
					<dim>1</dim>
					<dim>1</dim>
				</port>
			</output>
		</layer>
		<layer id="176" name="onnx_initializer_node_65/Output_0/Data__const177_const" type="Const" version="opset1">
			<data element_type="f32" offset="764588" shape="10,64,1,1" size="2560"/>
			<output>
				<port id="1" precision="FP32">
					<dim>10</dim>
					<dim>64</dim>
					<dim>1</dim>
					<dim>1</dim>
				</port>
			</output>
		</layer>
		<layer id="177" name="94/WithoutBiases" type="Convolution" version="opset1">
			<data dilations="1,1" output_padding="0,0" pads_begin="0,0" pads_end="0,0" strides="1,1"/>
			<input>
				<port id="0">
					<dim>1</dim>
					<dim>64</dim>
					<dim>1</dim>
					<dim>1</dim>
				</port>
				<port id="1">
					<dim>10</dim>
					<dim>64</dim>
					<dim>1</dim>
					<dim>1</dim>
				</port>
			</input>
			<output>
				<port id="2" precision="FP32">
					<dim>1</dim>
					<dim>10</dim>
					<dim>1</dim>
					<dim>1</dim>
				</port>
			</output>
		</layer>
		<layer id="178" name="94/Dims1171/copy_const179_const" type="Const" version="opset1">
			<data element_type="f32" offset="767148" shape="1,10,1,1" size="40"/>
			<output>
				<port id="1" precision="FP32">
					<dim>1</dim>
					<dim>10</dim>
					<dim>1</dim>
					<dim>1</dim>
				</port>
			</output>
		</layer>
		<layer id="179" name="94" type="Add" version="opset1">
			<input>
				<port id="0">
					<dim>1</dim>
					<dim>10</dim>
					<dim>1</dim>
					<dim>1</dim>
				</port>
				<port id="1">
					<dim>1</dim>
					<dim>10</dim>
					<dim>1</dim>
					<dim>1</dim>
				</port>
			</input>
			<output>
				<port id="2" precision="FP32">
					<dim>1</dim>
					<dim>10</dim>
					<dim>1</dim>
					<dim>1</dim>
				</port>
			</output>
		</layer>
		<layer id="180" name="95" type="Sigmoid" version="opset1">
			<input>
				<port id="0">
					<dim>1</dim>
					<dim>10</dim>
					<dim>1</dim>
					<dim>1</dim>
				</port>
			</input>
			<output>
				<port id="1" precision="FP32">
					<dim>1</dim>
					<dim>10</dim>
					<dim>1</dim>
					<dim>1</dim>
				</port>
			</output>
		</layer>
		<layer id="181" name="95/sink_port_0" type="Result" version="opset1">
			<input>
				<port id="0">
					<dim>1</dim>
					<dim>10</dim>
					<dim>1</dim>
					<dim>1</dim>
				</port>
			</input>
		</layer>
	</layers>
	<edges>
		<edge from-layer="0" from-port="0" to-layer="2" to-port="0"/>
		<edge from-layer="1" from-port="1" to-layer="2" to-port="1"/>
		<edge from-layer="2" from-port="2" to-layer="4" to-port="0"/>
		<edge from-layer="3" from-port="1" to-layer="4" to-port="1"/>
		<edge from-layer="4" from-port="2" to-layer="9" to-port="0"/>
		<edge from-layer="5" from-port="1" to-layer="9" to-port="1"/>
		<edge from-layer="6" from-port="1" to-layer="9" to-port="2"/>
		<edge from-layer="7" from-port="1" to-layer="9" to-port="3"/>
		<edge from-layer="8" from-port="1" to-layer="9" to-port="4"/>
		<edge from-layer="10" from-port="1" to-layer="15" to-port="0"/>
		<edge from-layer="11" from-port="1" to-layer="15" to-port="1"/>
		<edge from-layer="12" from-port="1" to-layer="15" to-port="2"/>
		<edge from-layer="13" from-port="1" to-layer="15" to-port="3"/>
		<edge from-layer="14" from-port="1" to-layer="15" to-port="4"/>
		<edge from-layer="9" from-port="5" to-layer="16" to-port="0"/>
		<edge from-layer="15" from-port="5" to-layer="16" to-port="1"/>
		<edge from-layer="16" from-port="2" to-layer="18" to-port="0"/>
		<edge from-layer="17" from-port="1" to-layer="18" to-port="1"/>
		<edge from-layer="18" from-port="2" to-layer="20" to-port="0"/>
		<edge from-layer="19" from-port="1" to-layer="20" to-port="1"/>
		<edge from-layer="20" from-port="2" to-layer="21" to-port="0"/>
		<edge from-layer="21" from-port="1" to-layer="23" to-port="0"/>
		<edge from-layer="22" from-port="1" to-layer="23" to-port="1"/>
		<edge from-layer="23" from-port="2" to-layer="25" to-port="0"/>
		<edge from-layer="24" from-port="1" to-layer="25" to-port="1"/>
		<edge from-layer="25" from-port="2" to-layer="30" to-port="0"/>
		<edge from-layer="26" from-port="1" to-layer="30" to-port="1"/>
		<edge from-layer="27" from-port="1" to-layer="30" to-port="2"/>
		<edge from-layer="28" from-port="1" to-layer="30" to-port="3"/>
		<edge from-layer="29" from-port="1" to-layer="30" to-port="4"/>
		<edge from-layer="31" from-port="1" to-layer="36" to-port="0"/>
		<edge from-layer="32" from-port="1" to-layer="36" to-port="1"/>
		<edge from-layer="33" from-port="1" to-layer="36" to-port="2"/>
		<edge from-layer="34" from-port="1" to-layer="36" to-port="3"/>
		<edge from-layer="35" from-port="1" to-layer="36" to-port="4"/>
		<edge from-layer="30" from-port="5" to-layer="37" to-port="0"/>
		<edge from-layer="36" from-port="5" to-layer="37" to-port="1"/>
		<edge from-layer="37" from-port="2" to-layer="39" to-port="0"/>
		<edge from-layer="38" from-port="1" to-layer="39" to-port="1"/>
		<edge from-layer="39" from-port="2" to-layer="41" to-port="0"/>
		<edge from-layer="40" from-port="1" to-layer="41" to-port="1"/>
		<edge from-layer="41" from-port="2" to-layer="46" to-port="0"/>
		<edge from-layer="42" from-port="1" to-layer="46" to-port="1"/>
		<edge from-layer="43" from-port="1" to-layer="46" to-port="2"/>
		<edge from-layer="44" from-port="1" to-layer="46" to-port="3"/>
		<edge from-layer="45" from-port="1" to-layer="46" to-port="4"/>
		<edge from-layer="46" from-port="5" to-layer="47" to-port="0"/>
		<edge from-layer="47" from-port="1" to-layer="49" to-port="0"/>
		<edge from-layer="48" from-port="1" to-layer="49" to-port="1"/>
		<edge from-layer="49" from-port="2" to-layer="51" to-port="0"/>
		<edge from-layer="50" from-port="1" to-layer="51" to-port="1"/>
		<edge from-layer="51" from-port="2" to-layer="56" to-port="0"/>
		<edge from-layer="52" from-port="1" to-layer="56" to-port="1"/>
		<edge from-layer="53" from-port="1" to-layer="56" to-port="2"/>
		<edge from-layer="54" from-port="1" to-layer="56" to-port="3"/>
		<edge from-layer="55" from-port="1" to-layer="56" to-port="4"/>
		<edge from-layer="57" from-port="1" to-layer="62" to-port="0"/>
		<edge from-layer="58" from-port="1" to-layer="62" to-port="1"/>
		<edge from-layer="59" from-port="1" to-layer="62" to-port="2"/>
		<edge from-layer="60" from-port="1" to-layer="62" to-port="3"/>
		<edge from-layer="61" from-port="1" to-layer="62" to-port="4"/>
		<edge from-layer="56" from-port="5" to-layer="63" to-port="0"/>
		<edge from-layer="62" from-port="5" to-layer="63" to-port="1"/>
		<edge from-layer="63" from-port="2" to-layer="65" to-port="0"/>
		<edge from-layer="64" from-port="1" to-layer="65" to-port="1"/>
		<edge from-layer="65" from-port="2" to-layer="67" to-port="0"/>
		<edge from-layer="66" from-port="1" to-layer="67" to-port="1"/>
		<edge from-layer="67" from-port="2" to-layer="72" to-port="0"/>
		<edge from-layer="68" from-port="1" to-layer="72" to-port="1"/>
		<edge from-layer="69" from-port="1" to-layer="72" to-port="2"/>
		<edge from-layer="70" from-port="1" to-layer="72" to-port="3"/>
		<edge from-layer="71" from-port="1" to-layer="72" to-port="4"/>
		<edge from-layer="72" from-port="5" to-layer="73" to-port="0"/>
		<edge from-layer="73" from-port="1" to-layer="75" to-port="0"/>
		<edge from-layer="74" from-port="1" to-layer="75" to-port="1"/>
		<edge from-layer="75" from-port="2" to-layer="77" to-port="0"/>
		<edge from-layer="76" from-port="1" to-layer="77" to-port="1"/>
		<edge from-layer="77" from-port="2" to-layer="82" to-port="0"/>
		<edge from-layer="78" from-port="1" to-layer="82" to-port="1"/>
		<edge from-layer="79" from-port="1" to-layer="82" to-port="2"/>
		<edge from-layer="80" from-port="1" to-layer="82" to-port="3"/>
		<edge from-layer="81" from-port="1" to-layer="82" to-port="4"/>
		<edge from-layer="83" from-port="1" to-layer="88" to-port="0"/>
		<edge from-layer="84" from-port="1" to-layer="88" to-port="1"/>
		<edge from-layer="85" from-port="1" to-layer="88" to-port="2"/>
		<edge from-layer="86" from-port="1" to-layer="88" to-port="3"/>
		<edge from-layer="87" from-port="1" to-layer="88" to-port="4"/>
		<edge from-layer="82" from-port="5" to-layer="89" to-port="0"/>
		<edge from-layer="88" from-port="5" to-layer="89" to-port="1"/>
		<edge from-layer="89" from-port="2" to-layer="91" to-port="0"/>
		<edge from-layer="90" from-port="1" to-layer="91" to-port="1"/>
		<edge from-layer="91" from-port="2" to-layer="93" to-port="0"/>
		<edge from-layer="92" from-port="1" to-layer="93" to-port="1"/>
		<edge from-layer="93" from-port="2" to-layer="98" to-port="0"/>
		<edge from-layer="94" from-port="1" to-layer="98" to-port="1"/>
		<edge from-layer="95" from-port="1" to-layer="98" to-port="2"/>
		<edge from-layer="96" from-port="1" to-layer="98" to-port="3"/>
		<edge from-layer="97" from-port="1" to-layer="98" to-port="4"/>
		<edge from-layer="98" from-port="5" to-layer="100" to-port="0"/>
		<edge from-layer="99" from-port="1" to-layer="100" to-port="1"/>
		<edge from-layer="100" from-port="2" to-layer="102" to-port="0"/>
		<edge from-layer="101" from-port="1" to-layer="102" to-port="1"/>
		<edge from-layer="102" from-port="2" to-layer="107" to-port="0"/>
		<edge from-layer="103" from-port="1" to-layer="107" to-port="1"/>
		<edge from-layer="104" from-port="1" to-layer="107" to-port="2"/>
		<edge from-layer="105" from-port="1" to-layer="107" to-port="3"/>
		<edge from-layer="106" from-port="1" to-layer="107" to-port="4"/>
		<edge from-layer="108" from-port="1" to-layer="113" to-port="0"/>
		<edge from-layer="109" from-port="1" to-layer="113" to-port="1"/>
		<edge from-layer="110" from-port="1" to-layer="113" to-port="2"/>
		<edge from-layer="111" from-port="1" to-layer="113" to-port="3"/>
		<edge from-layer="112" from-port="1" to-layer="113" to-port="4"/>
		<edge from-layer="107" from-port="5" to-layer="114" to-port="0"/>
		<edge from-layer="113" from-port="5" to-layer="114" to-port="1"/>
		<edge from-layer="114" from-port="2" to-layer="116" to-port="0"/>
		<edge from-layer="115" from-port="1" to-layer="116" to-port="1"/>
		<edge from-layer="116" from-port="2" to-layer="118" to-port="0"/>
		<edge from-layer="117" from-port="1" to-layer="118" to-port="1"/>
		<edge from-layer="118" from-port="2" to-layer="123" to-port="0"/>
		<edge from-layer="119" from-port="1" to-layer="123" to-port="1"/>
		<edge from-layer="120" from-port="1" to-layer="123" to-port="2"/>
		<edge from-layer="121" from-port="1" to-layer="123" to-port="3"/>
		<edge from-layer="122" from-port="1" to-layer="123" to-port="4"/>
		<edge from-layer="123" from-port="5" to-layer="125" to-port="0"/>
		<edge from-layer="124" from-port="1" to-layer="125" to-port="1"/>
		<edge from-layer="125" from-port="2" to-layer="127" to-port="0"/>
		<edge from-layer="126" from-port="1" to-layer="127" to-port="1"/>
		<edge from-layer="127" from-port="2" to-layer="132" to-port="0"/>
		<edge from-layer="128" from-port="1" to-layer="132" to-port="1"/>
		<edge from-layer="129" from-port="1" to-layer="132" to-port="2"/>
		<edge from-layer="130" from-port="1" to-layer="132" to-port="3"/>
		<edge from-layer="131" from-port="1" to-layer="132" to-port="4"/>
		<edge from-layer="133" from-port="1" to-layer="138" to-port="0"/>
		<edge from-layer="134" from-port="1" to-layer="138" to-port="1"/>
		<edge from-layer="135" from-port="1" to-layer="138" to-port="2"/>
		<edge from-layer="136" from-port="1" to-layer="138" to-port="3"/>
		<edge from-layer="137" from-port="1" to-layer="138" to-port="4"/>
		<edge from-layer="138" from-port="5" to-layer="140" to-port="0"/>
		<edge from-layer="139" from-port="1" to-layer="140" to-port="1"/>
		<edge from-layer="132" from-port="5" to-layer="141" to-port="0"/>
		<edge from-layer="140" from-port="2" to-layer="141" to-port="1"/>
		<edge from-layer="141" from-port="2" to-layer="143" to-port="0"/>
		<edge from-layer="142" from-port="1" to-layer="143" to-port="1"/>
		<edge from-layer="143" from-port="2" to-layer="145" to-port="0"/>
		<edge from-layer="144" from-port="1" to-layer="145" to-port="1"/>
		<edge from-layer="145" from-port="2" to-layer="150" to-port="0"/>
		<edge from-layer="146" from-port="1" to-layer="150" to-port="1"/>
		<edge from-layer="147" from-port="1" to-layer="150" to-port="2"/>
		<edge from-layer="148" from-port="1" to-layer="150" to-port="3"/>
		<edge from-layer="149" from-port="1" to-layer="150" to-port="4"/>
		<edge from-layer="150" from-port="5" to-layer="152" to-port="0"/>
		<edge from-layer="151" from-port="1" to-layer="152" to-port="1"/>
		<edge from-layer="152" from-port="2" to-layer="154" to-port="0"/>
		<edge from-layer="153" from-port="1" to-layer="154" to-port="1"/>
		<edge from-layer="154" from-port="2" to-layer="156" to-port="0"/>
		<edge from-layer="155" from-port="1" to-layer="156" to-port="1"/>
		<edge from-layer="156" from-port="2" to-layer="158" to-port="0"/>
		<edge from-layer="157" from-port="1" to-layer="158" to-port="1"/>
		<edge from-layer="158" from-port="2" to-layer="160" to-port="0"/>
		<edge from-layer="159" from-port="1" to-layer="160" to-port="1"/>
		<edge from-layer="160" from-port="2" to-layer="165" to-port="0"/>
		<edge from-layer="161" from-port="1" to-layer="165" to-port="1"/>
		<edge from-layer="162" from-port="1" to-layer="165" to-port="2"/>
		<edge from-layer="163" from-port="1" to-layer="165" to-port="3"/>
		<edge from-layer="164" from-port="1" to-layer="165" to-port="4"/>
		<edge from-layer="165" from-port="5" to-layer="167" to-port="0"/>
		<edge from-layer="166" from-port="1" to-layer="167" to-port="1"/>
		<edge from-layer="167" from-port="2" to-layer="169" to-port="0"/>
		<edge from-layer="168" from-port="1" to-layer="169" to-port="1"/>
		<edge from-layer="169" from-port="2" to-layer="171" to-port="0"/>
		<edge from-layer="170" from-port="1" to-layer="171" to-port="1"/>
		<edge from-layer="171" from-port="2" to-layer="173" to-port="0"/>
		<edge from-layer="172" from-port="1" to-layer="173" to-port="1"/>
		<edge from-layer="173" from-port="2" to-layer="175" to-port="0"/>
		<edge from-layer="174" from-port="1" to-layer="175" to-port="1"/>
		<edge from-layer="175" from-port="2" to-layer="177" to-port="0"/>
		<edge from-layer="176" from-port="1" to-layer="177" to-port="1"/>
		<edge from-layer="177" from-port="2" to-layer="179" to-port="0"/>
		<edge from-layer="178" from-port="1" to-layer="179" to-port="1"/>
		<edge from-layer="179" from-port="2" to-layer="180" to-port="0"/>
		<edge from-layer="180" from-port="1" to-layer="181" to-port="0"/>
	</edges>
	<meta_data>
		<MO_version value="unknown version"/>
		<cli_parameters>
			<blobs_as_inputs value="True"/>
			<caffe_parser_path value="DIR"/>
			<data_type value="FP32"/>
			<disable_nhwc_to_nchw value="False"/>
			<disable_omitting_optional value="False"/>
			<disable_resnet_optimization value="False"/>
			<enable_concat_optimization value="False"/>
			<enable_flattening_nested_params value="False"/>
			<enable_ssd_gluoncv value="False"/>
			<extensions value="DIR"/>
			<framework value="onnx"/>
			<freeze_placeholder_with_value value="{}"/>
			<generate_deprecated_IR_V2 value="False"/>
			<generate_deprecated_IR_V7 value="False"/>
			<generate_experimental_IR_V10 value="True"/>
			<input value="0"/>
			<input_model value="DIR/Landnet_wing_blur2_21000.onnx"/>
			<input_model_is_text value="False"/>
			<input_shape value="[1,3,48,48]"/>
			<k value="DIR/CustomLayersMapping.xml"/>
			<keep_quantize_ops_in_IR value="True"/>
			<keep_shape_ops value="False"/>
			<legacy_mxnet_model value="False"/>
			<log_level value="ERROR"/>
			<mean_scale_values value="{'0': {'mean': None, 'scale': array([254.99991075])}}"/>
			<mean_values value="()"/>
			<model_name value="landmarks-regression-retail-0009"/>
			<move_to_preprocess value="False"/>
			<output_dir value="DIR"/>
			<placeholder_data_types value="{}"/>
			<placeholder_shapes value="{'0': array([ 1,  3, 48, 48])}"/>
			<progress value="False"/>
			<remove_memory value="False"/>
			<remove_output_softmax value="False"/>
			<reverse_input_channels value="True"/>
			<save_params_from_nd value="False"/>
			<scale_values value="0[254.99991075003123]"/>
			<silent value="False"/>
			<stream_output value="False"/>
			<unset unset_cli_parameters="batch, counts, disable_fusing, disable_gfusing, finegrain_fusing, input_checkpoint, input_meta_graph, input_proto, input_symbol, mean_file, mean_file_offsets, nd_prefix_name, output, pretrained_model_name, saved_model_dir, saved_model_tags, scale, tensorboard_logdir, tensorflow_custom_layer_libraries, tensorflow_custom_operations_config_update, tensorflow_object_detection_api_pipeline_config, tensorflow_operation_patterns, tensorflow_subgraph_patterns, tensorflow_use_custom_operations_config, transformations_config"/>
		</cli_parameters>
	</meta_data>
</net>
